…
2024-08-29 21:54:22,414 - default_logger - INFO - Loading California Housing dataset
2024-08-29 21:54:22,428 - default_logger - INFO - California Housing dataset loaded. Shape: torch.Size([20640, 8])
2024-08-29 21:54:22,428 - default_logger - INFO - California Housing dataset loaded. Shape: torch.Size([20640, 8])
2024-08-29 21:54:22,428 - default_logger - INFO - California Housing dataset loaded. Shape: torch.Size([20640, 8])
2024-08-29 21:54:22,428 - default_logger - INFO - California Housing dataset loaded. Shape: torch.Size([20640, 8])
2024-08-29 21:54:22,433 - default_logger - INFO - Model architecture:
ScoreNetwork(
  (time_embed): Sequential(
    (0): Linear(in_features=1, out_features=64, bias=True)
    (1): SiLU()
    (2): Linear(in_features=64, out_features=64, bias=True)
  )
  (input_proj): Linear(in_features=8, out_features=64, bias=True)
  (layers): ModuleList(
    (0-2): 3 x Sequential(
      (0): Linear(in_features=64, out_features=64, bias=True)
      (1): LayerNorm((64,), eps=1e-05, elementwise_affine=True)
      (2): SiLU()
      (3): Linear(in_features=64, out_features=64, bias=True)
      (4): LayerNorm((64,), eps=1e-05, elementwise_affine=True)
      (5): SiLU()
    )
  )
  (final): Linear(in_features=64, out_features=8, bias=True)
)
2024-08-29 21:54:22,433 - default_logger - INFO - Model architecture:
ScoreNetwork(
  (time_embed): Sequential(
    (0): Linear(in_features=1, out_features=64, bias=True)
    (1): SiLU()
    (2): Linear(in_features=64, out_features=64, bias=True)
  )
  (input_proj): Linear(in_features=8, out_features=64, bias=True)
  (layers): ModuleList(
    (0-2): 3 x Sequential(
      (0): Linear(in_features=64, out_features=64, bias=True)
      (1): LayerNorm((64,), eps=1e-05, elementwise_affine=True)
      (2): SiLU()
      (3): Linear(in_features=64, out_features=64, bias=True)
      (4): LayerNorm((64,), eps=1e-05, elementwise_affine=True)
      (5): SiLU()
    )
  )
  (final): Linear(in_features=64, out_features=8, bias=True)
)
2024-08-29 21:54:22,433 - default_logger - INFO - Model architecture:
ScoreNetwork(
  (time_embed): Sequential(
    (0): Linear(in_features=1, out_features=64, bias=True)
    (1): SiLU()
    (2): Linear(in_features=64, out_features=64, bias=True)
  )
  (input_proj): Linear(in_features=8, out_features=64, bias=True)
  (layers): ModuleList(
    (0-2): 3 x Sequential(
      (0): Linear(in_features=64, out_features=64, bias=True)
      (1): LayerNorm((64,), eps=1e-05, elementwise_affine=True)
      (2): SiLU()
      (3): Linear(in_features=64, out_features=64, bias=True)
      (4): LayerNorm((64,), eps=1e-05, elementwise_affine=True)
      (5): SiLU()
    )
  )
  (final): Linear(in_features=64, out_features=8, bias=True)
)
2024-08-29 21:54:22,433 - default_logger - INFO - Model architecture:
ScoreNetwork(
  (time_embed): Sequential(
    (0): Linear(in_features=1, out_features=64, bias=True)
    (1): SiLU()
    (2): Linear(in_features=64, out_features=64, bias=True)
  )
  (input_proj): Linear(in_features=8, out_features=64, bias=True)
  (layers): ModuleList(
    (0-2): 3 x Sequential(
      (0): Linear(in_features=64, out_features=64, bias=True)
      (1): LayerNorm((64,), eps=1e-05, elementwise_affine=True)
      (2): SiLU()
      (3): Linear(in_features=64, out_features=64, bias=True)
      (4): LayerNorm((64,), eps=1e-05, elementwise_affine=True)
      (5): SiLU()
    )
  )
  (final): Linear(in_features=64, out_features=8, bias=True)
)
2024-08-29 21:54:22,438 - default_logger - INFO - Starting score model training
2024-08-29 21:54:22,438 - default_logger - INFO - Starting score model training
2024-08-29 21:54:22,438 - default_logger - INFO - Starting score model training
2024-08-29 21:54:22,438 - default_logger - INFO - Starting score model training
2024-08-29 21:54:22,438 - default_logger - INFO - Starting score model training
…
