…
2024-08-29 21:26:47,935 - default_logger - INFO - California Housing dataset loaded. Shape: torch.Size([20640, 8])
2024-08-29 21:26:47,935 - default_logger - INFO - California Housing dataset loaded. Shape: torch.Size([20640, 8])
2024-08-29 21:26:47,935 - default_logger - INFO - California Housing dataset loaded. Shape: torch.Size([20640, 8])
2024-08-29 21:26:47,935 - default_logger - INFO - California Housing dataset loaded. Shape: torch.Size([20640, 8])
2024-08-29 21:26:47,935 - default_logger - INFO - California Housing dataset loaded. Shape: torch.Size([20640, 8])
2024-08-29 21:26:47,999 - default_logger - INFO - Model architecture:
ScoreNetwork(
  (time_embed): Sequential(
    (0): Linear(in_features=1, out_features=256, bias=True)
    (1): SiLU()
    (2): Linear(in_features=256, out_features=256, bias=True)
  )
  (input_proj): Linear(in_features=8, out_features=256, bias=True)
  (layers): ModuleList(
    (0-7): 8 x Sequential(
      (0): Linear(in_features=256, out_features=1024, bias=True)
      (1): LayerNorm((1024,), eps=1e-05, elementwise_affine=True)
      (2): SiLU()
      (3): Linear(in_features=1024, out_features=256, bias=True)
      (4): LayerNorm((256,), eps=1e-05, elementwise_affine=True)
      (5): SiLU()
    )
  )
  (final): Linear(in_features=256, out_features=8, bias=True)
)
2024-08-29 21:26:47,999 - default_logger - INFO - Model architecture:
ScoreNetwork(
  (time_embed): Sequential(
    (0): Linear(in_features=1, out_features=256, bias=True)
    (1): SiLU()
    (2): Linear(in_features=256, out_features=256, bias=True)
  )
  (input_proj): Linear(in_features=8, out_features=256, bias=True)
  (layers): ModuleList(
    (0-7): 8 x Sequential(
      (0): Linear(in_features=256, out_features=1024, bias=True)
      (1): LayerNorm((1024,), eps=1e-05, elementwise_affine=True)
      (2): SiLU()
      (3): Linear(in_features=1024, out_features=256, bias=True)
      (4): LayerNorm((256,), eps=1e-05, elementwise_affine=True)
      (5): SiLU()
    )
  )
  (final): Linear(in_features=256, out_features=8, bias=True)
)
2024-08-29 21:26:47,999 - default_logger - INFO - Model architecture:
ScoreNetwork(
  (time_embed): Sequential(
    (0): Linear(in_features=1, out_features=256, bias=True)
    (1): SiLU()
    (2): Linear(in_features=256, out_features=256, bias=True)
  )
  (input_proj): Linear(in_features=8, out_features=256, bias=True)
  (layers): ModuleList(
    (0-7): 8 x Sequential(
      (0): Linear(in_features=256, out_features=1024, bias=True)
      (1): LayerNorm((1024,), eps=1e-05, elementwise_affine=True)
      (2): SiLU()
      (3): Linear(in_features=1024, out_features=256, bias=True)
      (4): LayerNorm((256,), eps=1e-05, elementwise_affine=True)
      (5): SiLU()
    )
  )
  (final): Linear(in_features=256, out_features=8, bias=True)
)
2024-08-29 21:26:47,999 - default_logger - INFO - Model architecture:
ScoreNetwork(
  (time_embed): Sequential(
    (0): Linear(in_features=1, out_features=256, bias=True)
    (1): SiLU()
    (2): Linear(in_features=256, out_features=256, bias=True)
  )
  (input_proj): Linear(in_features=8, out_features=256, bias=True)
  (layers): ModuleList(
    (0-7): 8 x Sequential(
      (0): Linear(in_features=256, out_features=1024, bias=True)
      (1): LayerNorm((1024,), eps=1e-05, elementwise_affine=True)
      (2): SiLU()
      (3): Linear(in_features=1024, out_features=256, bias=True)
      (4): LayerNorm((256,), eps=1e-05, elementwise_affine=True)
      (5): SiLU()
    )
  )
  (final): Linear(in_features=256, out_features=8, bias=True)
)
2024-08-29 21:26:47,999 - default_logger - INFO - Model architecture:
ScoreNetwork(
  (time_embed): Sequential(
    (0): Linear(in_features=1, out_features=256, bias=True)
    (1): SiLU()
    (2): Linear(in_features=256, out_features=256, bias=True)
  )
  (input_proj): Linear(in_features=8, out_features=256, bias=True)
  (layers): ModuleList(
    (0-7): 8 x Sequential(
      (0): Linear(in_features=256, out_features=1024, bias=True)
      (1): LayerNorm((1024,), eps=1e-05, elementwise_affine=True)
      (2): SiLU()
      (3): Linear(in_features=1024, out_features=256, bias=True)
      (4): LayerNorm((256,), eps=1e-05, elementwise_affine=True)
      (5): SiLU()
    )
  )
  (final): Linear(in_features=256, out_features=8, bias=True)
)
2024-08-29 21:26:48,006 - default_logger - INFO - Starting score model training
2024-08-29 21:26:48,006 - default_logger - INFO - Starting score model training
2024-08-29 21:26:48,006 - default_logger - INFO - Starting score model training
2024-08-29 21:26:48,006 - default_logger - INFO - Starting score model training
2024-08-29 21:26:48,006 - default_logger - INFO - Starting score model training
…
